public_model_414_55.pt (torch_old, 246352 bytes, 80 tensors)

conv1.weight f4 [8, 1, 3, 3]
0	0x80000539	-1.874e-42
1	0x80000138	-4.37e-43
2	0x80000fe5	-5.702e-42
3	0x80000e81	-5.203e-42
4	0x0000119f	6.321e-42
5	0x00000ac8	3.868e-42
6	0x80000c84	-4.49e-42
7	0x80001513	-7.56e-42
8	0x00000f5b	5.509e-42
9	0x0000048e	1.634e-42
10	0x00000763	2.65e-42
11	0x8000100b	-5.755e-42
12	0x80000f36	-5.457e-42
13	0x800007db	-2.818e-42
14	0x0000101c	5.779e-42
15	0x8000060f	-2.173e-42
16	0x800001c1	-6.29e-43
17	0x00000d7d	4.839e-42
18	0x8000157b	-7.706e-42
19	0x80000e2e	-5.087e-42
20	0x000006b0	2.399e-42
21	0x800015e6	-7.856e-42
22	0x80000e0d	-5.04e-42
23	0x00000f78	5.549e-42
24	0x0000079a	2.727e-42
25	0x800001c9	-6.4e-43
26	0x80001369	-6.963e-42
27	0x80000116	-3.9e-43
28	0x800000fa	-3.5e-43
29	0x8000091c	-3.268e-42
30	0x000003cc	1.362e-42
31	0x0000066f	2.308e-42
32	0x800008b9	-3.129e-42
33	0x00000377	1.243e-42
34	0x0000024c	8.24e-43
35	0x80000557	-1.916e-42
36	0xbc60bae6	-0.013716435
37	0x3bd7432a	0.006569286
38	0x3dd14906	0.10219006
39	0xbcf94c43	-0.030431872
40	0x3cb155da	0.021647383
41	0x3c38ed8f	0.011287107
42	0xbcbfbda6	-0.023405861
43	0xbd5312c9	-0.051531587
44	0xbe56ab98	-0.20963895
45	0x3cf3e1a4	0.02977068
46	0xbe599ca8	-0.21251166
47	0xbdb0d5eb	-0.086345516
48	0x3e1e041d	0.15431257
49	0xbdfe41c8	-0.124148905
50	0xbe4d564d	-0.20052452
51	0x3c0d9b5f	0.008643
52	0x3ea3390e	0.31879467
53	0x3ddcbd37	0.10778277
54	0x8000076f	-2.667e-42
55	0x80000085	-1.86e-43
56	0x00000451	1.548e-42
57	0x00000992	3.433e-42
58	0x00000eed	5.354e-42
59	0x00000ae6	3.91e-42
60	0x0000070e	2.531e-42
61	0x800003af	-1.321e-42
62	0x00000f98	5.594e-42
63	0xbe32a366	-0.17445144
64	0xbe03bf7f	-0.12866019
65	0xbcb1030d	-0.0216079
66	0xbe72171e	-0.23641631
67	0x3f05283d	0.52014524
68	0xba741ee2	-0.0009312463
69	0x3c8bb742	0.017055158
70	0x3af629bd	0.001878075
71	0x3ce5a39e	0.02803212

bn1.weight f4 [8]
0	0x00000172	5.18e-43
1	0x80000f8f	-5.581e-42
2	0x00000ebc	5.286e-42
3	0x8000066b	-2.302e-42
4	0x3e375206	0.17902383
5	0x3e0a65ba	0.13515368
6	0x80000494	-1.642e-42
7	0x3e0f387f	0.13986395

bn1.bias f4 [8]
0	0x800879d8	-7.78393e-40
1	0x80019c29	-1.47855e-40
2	0x801a0692	-2.39008e-39
3	0x80040e40	-3.72454e-40
4	0xbdc8f37f	-0.09812068
5	0x3dfbb532	0.1229042
6	0x80006910	-3.769e-41
7	0x3ea035ca	0.31291038

bn1.running_mean f4 [8]
0	0x0000035d	1.207e-42
1	0x80001668	-8.038e-42
2	0x8000099c	-3.447e-42
3	0x800001c8	-6.39e-43
4	0xbdc4053c	-0.09571311
5	0xbb1f08d8	-0.0024266746
6	0x00001e4e	1.0871e-41
7	0x3b01ef96	0.0019826642

bn1.running_var f4 [8]
0	0x00000000	0.0
1	0x00000000	0.0
2	0x00000000	0.0
3	0x00000000	0.0
4	0x3b04bc66	0.0020253896
5	0x3b3d5179	0.0028887673
6	0x00000000	0.0
7	0x3b09747d	0.0020973973

conv2.weight f4 [8, 8, 3, 3]
0	0x800012f4	-6.799e-42
1	0x800001fc	-7.12e-43
2	0x00001667	8.036e-42
3	0x80001762	-8.388e-42
4	0x80000eef	-5.357e-42
5	0x00001335	6.89e-42
6	0x8000134b	-6.921e-42
7	0x0000040b	1.45e-42
8	0x0000163a	7.973e-42
9	0x80001091	-5.943e-42
10	0x00000667	2.297e-42
11	0x000008b4	3.122e-42
12	0x0000156f	7.689e-42
13	0x800004c6	-1.712e-42
14	0x0000110d	6.117e-42
15	0x0000085f	3.003e-42
16	0x80000197	-5.7e-43
17	0x0000121c	6.496e-42
18	0x80000bad	-4.188e-42
19	0x0000108f	5.94e-42
20	0x00000b55	4.065e-42
21	0x000010c3	6.013e-42
22	0x00001016	5.77e-42
23	0x800006bf	-2.42e-42
24	0x8000150a	-7.547e-42
25	0x800011c3	-6.372e-42
26	0x000011c9	6.38e-42
27	0x00000a6f	3.743e-42
28	0x80000060	-1.35e-43
29	0x8000028a	-9.11e-43
30	0x000005a5	2.025e-42
31	0x0000065a	2.279e-42
32	0x00000549	1.896e-42
33	0x80000f0e	-5.4e-42
34	0x00000df3	5.004e-42
35	0x000000c3	2.73e-43
36	0xbd943a7f	-0.0723772
37	0x3dcb63f9	0.09931178
38	0x3ca348dd	0.019932205
39	0xbdc50484	-0.09620002
40	0x3e1fb754	0.15597278
41	0x3cdb61fe	0.026780125
42	0x3d12f8fb	0.035881978
43	0x3d17d123	0.037064683
44	0xbdb6568f	-0.089032285
45	0xbcc2b5af	-0.023768274
46	0xbe0cf832	-0.13766554
47	0xb9684143	-0.00022149556
48	0x3cb0418e	0.021515634
49	0xbdca49d5	-0.098773636
50	0xbc98c50c	-0.018648647
51	0xb9f6f68c	-0.00047104468
52	0x3d721a7a	0.05910728
53	0xbd805ef4	-0.06268111
54	0x00000109	3.71e-43
55	0x00000bec	4.277e-42
56	0x000001cf	6.49e-43
57	0x00000d10	4.686e-42
58	0x800000fd	-3.55e-43
59	0x000000a4	2.3e-43
60	0x80000193	-5.65e-43
61	0x000004b8	1.693e-42
62	0x800002f2	-1.057e-42
63	0x3d680388	0.056643993
64	0x3d06d7ac	0.032920524
65	0x3ddbd93d	0.10734794
66	0xbdfe219f	-0.124087565
67	0x3d1d9dbd	0.03848051
68	0x3dd74a98	0.105122745
69	0xbd81f2b8	-0.06345123
70	0xbdf4e6c1	-0.11958075
71	0x3d930e09	0.07180411
72	0x800016ab	-8.132e-42
73	0x800016aa	-8.13e-42
74	0x000011ca	6.382e-42
75	0x800008c1	-3.14e-42
76	0x000005a5	2.025e-42
77	0x80000e40	-5.112e-42
78	0x00000585	1.98e-42
79	0x80000f2a	-5.44e-42
80	0x0000128f	6.658e-42
81	0x0000044b	1.54e-42
82	0x8000036f	-1.232e-42
83	0x000005ec	2.124e-42
84	0x80000c41	-4.396e-42
85	0x0000027b	8.9e-43
86	0x000012d8	6.76e-42
87	0x000003a4	1.306e-42
88	0x00000f7d	5.556e-42
89	0x00000dd5	4.962e-42
90	0x000015d6	7.833e-42
91	0x000014e8	7.5e-42
92	0x000016cb	8.177e-42
93	0x0000007a	1.71e-43
94	0x8000082d	-2.933e-42
95	0x80001551	-7.647e-42
96	0x80000f56	-5.501e-42
97	0x800003cb	-1.36e-42
98	0x80001236	-6.533e-42
99	0x000003ab	1.316e-42
100	0x00000a78	3.755e-42
101	0x00000b97	4.158e-42
102	0x80001389	-7.008e-42
103	0x80000732	-2.581e-42
104	0x00000be4	4.266e-42
105	0x80000870	-3.027e-42
106	0x00000ee9	5.349e-42
107	0x0000093b	3.311e-42
108	0x8000050c	-1.81e-42
109	0x80000a3c	-3.671e-42
110	0x80000b30	-4.013e-42
111	0x80000b6d	-4.099e-42
112	0x80000ccb	-4.589e-42
113	0x000005f2	2.133e-42
114	0x8000016c	-5.1e-43
115	0x00000245	8.14e-43
116	0x80001175	-6.262e-42
117	0x80000e8e	-5.221e-42
118	0x0000014f	4.7e-43
119	0x000009be	3.495e-42
120	0x000006ae	2.396e-42
121	0x8000062e	-2.217e-42
122	0x80000053	-1.16e-43
123	0x80000127	-4.13e-43
124	0x80000605	-2.16e-42
125	0x000005cd	2.081e-42
126	0x00000204	7.23e-43
127	0x0000020a	7.31e-43
128	0x00000ca1	4.53e-42
129	0x80000e63	-5.161e-42
130	0x80000e22	-5.07e-42
131	0x0000108d	5.937e-42
132	0x800004e1	-1.75e-42
133	0x0000066a	2.301e-42
134	0x00000a53	3.704e-42
135	0x00000ccb	4.589e-42
136	0x80000a96	-3.798e-42
137	0x800003ae	-1.32e-42
138	0x800003a2	-1.303e-42
139	0x80000714	-2.539e-42
140	0x80000452	-1.55e-42
141	0x80000dd4	-4.96e-42
142	0x800007e5	-2.832e-42
143	0x80000216	-7.48e-43
144	0x8000189b	-8.827e-42
145	0x8000032e	-1.14e-42
146	0x00000f6d	5.534e-42
147	0x00000ecd	5.31e-42
148	0x80000b79	-4.116e-42
149	0x80001314	-6.844e-42
150	0x80001646	-7.99e-42
151	0x00000f40	5.47e-42
152	0x00000e6d	5.175e-42
153	0x80000620	-2.197e-42
154	0x00000f01	5.382e-42
155	0x00001229	6.515e-42
156	0x0000002c	6.2e-44
157	0x00000fb8	5.639e-42
158	0x000008f2	3.209e-42
159	0x00001285	6.644e-42
160	0x000000ef	3.35e-43
161	0x0000062b	2.213e-42
162	0x0000062d	2.215e-42
163	0x8000140b	-7.19e-42
164	0x80000e97	-5.234e-42
165	0x80001461	-7.31e-42
166	0x80000f34	-5.454e-42
167	0x80000b22	-3.994e-42
168	0x0000154a	7.637e-42
169	0x800013ce	-7.105e-42
170	0x800013a7	-7.05e-42
171	0x00000aa9	3.824e-42
172	0x8000034b	-1.181e-42
173	0x80000dba	-4.924e-42
174	0x00000c2c	4.366e-42
175	0x00000482	1.617e-42
176	0x8000090f	-3.25e-42
177	0x800009c5	-3.505e-42
178	0x80000886	-3.058e-42
179	0x800007d6	-2.811e-42
180	0xbe02f8e8	-0.12790263
181	0x3d12859c	0.03577195
182	0x3e196a21	0.14981891
183	0xbd8f565e	-0.06998895
184	0x3d135ec5	0.03597905
185	0x3dc16b38	0.094442785
186	0x3d1b0174	0.037843183
187	0x3d371cc5	0.04470517
188	0x3d8438d7	0.06456154
189	0x3cd184a5	0.025575945
190	0xbc9ee550	-0.019396454
191	0xbd216b37	-0.03940889
192	0xbcfcad9b	-0.0308445
193	0x3d4154e6	0.047200106
194	0x3da4ad2f	0.08040845
195	0xbdbf0afd	-0.09328268
196	0x3d6a37ab	0.057181995
197	0x3d2431ba	0.040086485
198	0x00000adf	3.9e-42
199	0x80001086	-5.927e-42
200	0x8000081f	-2.913e-42
201	0x00001396	7.026e-42
202	0x000008aa	3.108e-42
203	0x00001317	6.848e-42
204	0x0000088d	3.067e-42
205	0x00000126	4.12e-43
206	0x000014a9	7.411e-42
207	0x3d02f4a8	0.031971604
208	0x3d68ce9f	0.056837674
209	0xbbae2f9f	-0.0053157355
210	0xbd01d080	-0.03169298
211	0x3d48bc08	0.049007446
212	0x3d03b54c	0.03215532
213	0xbd7845f4	-0.060613587
214	0x3e0df7cf	0.13864063
215	0xbe1d94ff	-0.15388869
216	0x00000f52	5.496e-42
217	0x00000513	1.82e-42
218	0x800010a8	-5.975e-42
219	0x80001217	-6.49e-42
220	0x80000c7b	-4.477e-42
221	0x8000131a	-6.852e-42
222	0x000013be	7.082e-42
223	0x00001143	6.192e-42
224	0x000013c6	7.093e-42
225	0x00001022	5.787e-42
226	0x80000d79	-4.833e-42
227	0x00000521	1.84e-42
228	0x0000007d	1.75e-43
229	0x800011d6	-6.398e-42
230	0x80000635	-2.227e-42
231	0x800006f5	-2.496e-42
232	0x800004e6	-1.757e-42
233	0x0000045e	1.567e-42
234	0x00000fee	5.714e-42
235	0x8000152f	-7.599e-42
236	0x0000010d	3.77e-43
237	0x80001633	-7.964e-42
238	0x80000633	-2.224e-42
239	0x8000124e	-6.566e-42
240	0x800011b9	-6.358e-42
241	0x8000158e	-7.732e-42
242	0x800010a8	-5.975e-42
243	0x00000e10	5.045e-42
244	0x00000775	2.675e-42
245	0x800001ee	-6.92e-43
246	0x0000040c	1.452e-42
247	0x80000915	-3.258e-42
248	0x800006ab	-2.392e-42
249	0x00000ea2	5.249e-42
250	0x00000100	3.59e-43
251	0x00000e94	5.23e-42
252	0x3d112c7a	0.035442807
253	0x3c63e86a	0.013910392
254	0x3cfaea06	0.03062917
255	0x3c843586	0.016138803

bn2.weight f4 [8]
0	0x3e6375d8	0.22212923
1	0x00000410	1.457e-42
2	0x3e57cf96	0.21075282
3	0x3e7b2812	0.24527004
4	0x3e824463	0.254428
5	0x0000044e	1.544e-42
6	0x3e768b40	0.24076557
7	0x3e71ae78	0.23601711

bn2.bias f4 [8]
0	0x3c0a33c7	0.008435196
1	0x00000897	3.081e-42
2	0x3e145332	0.14484861
3	0xbcbc8248	-0.023011342
4	0xbc9c7151	-0.019097002
5	0x0290d9d4	2.1283926e-37
6	0x3cefc6eb	0.029269656
7	0x3d8df732	0.069319144

bn2.running_mean f4 [8]
0	0x3aa0f91d	0.0012281273
1	0x80000eae	-5.266e-42
2	0x3d090986	0.033456348
3	0x3d663dfb	0.056211453
4	0xbd1599d2	-0.036523648
5	0x000006f0	2.489e-42
6	0xbd1a38ee	-0.03765195
7	0xbe2195f2	-0.15779856

bn2.running_var f4 [8]
0	0x3abe07f9	0.0014498226
1	0x00000000	0.0
2	0x3a3c7fff	0.0007190704
3	0x3a3fca57	0.0007316223
4	0x3b0285b6	0.0019916124
5	0x00000000	0.0
6	0x3aafe023	0.0013418238
7	0x3ad2cec1	0.0016083346

module1.residual_conv.weight f4 [16, 8, 1, 1]
0	0x00000271	8.76e-43
1	0x80000f40	-5.47e-42
2	0x00000c33	4.376e-42
3	0x80000b89	-4.138e-42
4	0x8000030c	-1.093e-42
5	0x80001710	-8.273e-42
6	0x80000c82	-4.487e-42
7	0x8000106f	-5.895e-42
8	0xba87c771	-0.0010359121
9	0x8000008d	-1.98e-43
10	0xbdb6f640	-0.08933687
11	0xbc3f448d	-0.011674059
12	0xbb8704f7	-0.004120465
13	0x8168b7fc	-4.2743673e-38
14	0xbd2efcd9	-0.042721603
15	0x3d872753	0.065992974
16	0x80000191	-5.62e-43
17	0x000008a9	3.107e-42
18	0x000005c4	2.068e-42
19	0x80000bc3	-4.22e-42
20	0x80000343	-1.17e-42
21	0x000013c4	7.09e-42
22	0x000004b3	1.686e-42
23	0x800007ab	-2.751e-42
24	0xbcb5a471	-0.022173138
25	0x0000037e	1.253e-42
26	0xbdf72402	-0.12067415
27	0x3b18bdc7	0.0023306475
28	0xbc7df2e7	-0.015499807
29	0x8000136e	-6.97e-42
30	0xbcb19eff	-0.02168226
31	0xbc34cb58	-0.011034809
32	0x800004ea	-1.763e-42
33	0x00000697	2.364e-42
34	0x800010c2	-6.012e-42
35	0x8000086f	-3.025e-42
36	0x00000655	2.272e-42
37	0x800009ff	-3.586e-42
38	0x000010a3	5.968e-42
39	0x00000e1f	5.066e-42
40	0x80000394	-1.284e-42
41	0x80000c14	-4.333e-42
42	0x0000106b	5.89e-42
43	0x800007f3	-2.852e-42
44	0x80000b3a	-4.027e-42
45	0x00001324	6.866e-42
46	0x80000a1b	-3.625e-42
47	0x80000a44	-3.683e-42
48	0x80000d52	-4.778e-42
49	0x8000054f	-1.904e-42
50	0x800007a7	-2.745e-42
51	0x80000307	-1.086e-42
52	0x80000317	-1.108e-42
53	0x00000c95	4.514e-42
54	0x800001ed	-6.91e-43
55	0x80001235	-6.531e-42
56	0x00000a54	3.705e-42
57	0x80000708	-2.522e-42
58	0x00000b22	3.994e-42
59	0x000012ea	6.785e-42
60	0x800003ee	-1.41e-42
61	0x00000f84	5.566e-42
62	0x000009e0	3.542e-42
63	0x000001db	6.66e-43
64	0x80001215	-6.487e-42
65	0x8000095a	-3.355e-42
66	0x80000e61	-5.158e-42
67	0x80000aa0	-3.812e-42
68	0x00000cbb	4.567e-42
69	0x00000ebb	5.284e-42
70	0x0000113c	6.183e-42
71	0x80000a6f	-3.743e-42
72	0x3d2add68	0.041715056
73	0x800005a4	-2.023e-42
74	0x3d1070d7	0.035263862
75	0xbc79f7fb	-0.015256877
76	0x395fd445	0.00021346014
77	0x8014653d	-1.873027e-39
78	0x3dad7d55	0.08471171
79	0xbe21cb56	-0.15800223
80	0x3bad00c8	0.005279634
81	0x80000694	-2.36e-42
82	0xbd90efb2	-0.07076968
83	0xbdb89eb4	-0.09014645
84	0xbc4cbb16	-0.012495777
85	0x001831da	2.221935e-39
86	0x3cd78091	0.026306422
87	0xbcf3ea1b	-0.029774716
88	0x80000d1a	-4.7e-42
89	0x000007aa	2.75e-42
90	0x800013a3	-7.044e-42
91	0x000017a4	8.48e-42
92	0x000010a8	5.975e-42
93	0x00000b87	4.135e-42
94	0x80000e4c	-5.129e-42
95	0x800002c5	-9.94e-43
96	0x3cb83642	0.02248681
97	0x8000057b	-1.966e-42
98	0xbd055d5b	-0.032559734
99	0x3e0ada24	0.13559777
100	0x3d49c1c2	0.049257047
101	0x0000064f	2.263e-42
102	0xbc484ad5	-0.012224873
103	0x3d177065	0.036972422
104	0xbb5ca3e0	-0.0033667013
105	0x80000401	-1.436e-42
106	0x3d5dd7d9	0.054160926
107	0xbc8bb3a4	-0.017053433
108	0x3d0a7ef2	0.03381247
109	0x000017f9	8.6e-42
110	0x3c62791d	0.013822821
111	0x3e525e46	0.20543775
112	0x00000071	1.58e-43
113	0x00000262	8.55e-43
114	0x000002d6	1.017e-42
115	0x00000f79	5.55e-42
116	0x800014d4	-7.472e-42
117	0x00001396	7.026e-42
118	0x80001800	-8.61e-42
119	0x80000dba	-4.924e-42
120	0x80000121	-4.05e-43
121	0x80000f21	-5.427e-42
122	0x80000d8c	-4.86e-42
123	0x00000600	2.152e-42
124	0x8000035a	-1.202e-42
125	0x00000cfa	4.655e-42
126	0x80001219	-6.492e-42
127	0x80000d3e	-4.75e-42

module1.residual_bn.weight f4 [16]
0	0x0000046c	1.586e-42
1	0x3d7b4f6c	0.06135504
2	0x00000f47	5.48e-42
3	0xbd5f2c2c	-0.054485485
4	0x0000158d	7.731e-42
5	0x0000154a	7.637e-42
6	0x80000648	-2.253e-42
7	0x00000cb7	4.561e-42
8	0x80000eaf	-5.267e-42
9	0x3dd213f4	0.10257712
10	0x3d8ad5b6	0.067790434
11	0x80000fec	-5.712e-42
12	0x3dc16eb9	0.09444947
13	0x3e348d6e	0.17632076
14	0x00000c16	4.336e-42
15	0x0000021e	7.6e-43

module1.residual_bn.bias f4 [16]
0	0x8604b7b5	-2.4961407e-35
1	0xbbc12bd3	-0.005895117
2	0x06b55c03	6.821983e-35
3	0x3cdf7801	0.027278902
4	0x0701416c	9.724107e-35
5	0x084e1c6e	6.202429e-34
6	0x86d1a1eb	-7.885498e-35
7	0x881e1bf2	-4.7579245e-34
8	0x8729c852	-1.2773016e-34
9	0xbccf2c10	-0.025289565
10	0x3cb53e13	0.022124326
11	0x06a87d4d	6.337869e-35
12	0x3cfb7e3d	0.030699844
13	0xbddae66a	-0.10688479
14	0x07461fdf	1.490523e-34
15	0x8591b2d6	-1.3701428e-35

module1.residual_bn.running_mean f4 [16]
0	0x0000009b	2.17e-43
1	0xbc2fbd08	-0.010726221
2	0x00000323	1.125e-42
3	0xbcc290f3	-0.023750758
4	0x80000053	-1.16e-43
5	0x800000f8	-3.48e-43
6	0x80000239	-7.97e-43
7	0x000007cd	2.798e-42
8	0x8000027b	-8.9e-43
9	0xbb49ac1a	-0.0030772747
10	0xbc8549b8	-0.016270503
11	0x800004cc	-1.721e-42
12	0x3c03c9c6	0.008043712
13	0x3d06c6ea	0.032904543
14	0x80000459	-1.56e-42
15	0x80000467	-1.579e-42

module1.residual_bn.running_var f4 [16]
0	0x00000000	0.0
1	0x392c8cfb	0.00016455718
2	0x00000000	0.0
3	0x394fc7ae	0.00019815445
4	0x00000000	0.0
5	0x00000000	0.0
6	0x00000000	0.0
7	0x00000000	0.0
8	0x00000000	0.0
9	0x398eae0e	0.0002721403
10	0x393bef34	0.0001792282
11	0x00000000	0.0
12	0x396f0fdc	0.00022798724
13	0x3a5ac00f	0.0008344659
14	0x00000000	0.0
15	0x00000000	0.0

module1.sepConv1.depthwise.weight f4 [8, 1, 3, 3]
0	0x3d929260	0.07156825
1	0x3d902f8f	0.07040321
2	0xbdd98f8f	-0.10623085
3	0xbe1fd806	-0.1560975
4	0xbe272d95	-0.16325982
5	0x3e224f04	0.15850455
6	0xbe0839ae	-0.13303253
7	0xbd36952d	-0.04457586
8	0x3c3983bb	0.011322911
9	0x00000648	2.253e-42
10	0x00000d74	4.826e-42
11	0x00000117	3.91e-43
12	0x8000031f	-1.12e-42
13	0x800002a8	-9.53e-43
14	0x000006fb	2.504e-42
15	0x00000480	1.614e-42
16	0x80000c40	-4.394e-42
17	0x8000056b	-1.944e-42
18	0xbd0e371b	-0.03472052
19	0xbdf41904	-0.11918834
20	0xbcd9528f	-0.026528625
21	0x3c93ec8b	0.018057128
22	0xbd63d726	-0.055625103
23	0x3e135cea	0.14390913
24	0xbc74490a	-0.014909992
25	0xbe574afb	-0.21024697
26	0x3e018b85	0.12650879
27	0xbd8ffc6d	-0.07030568
28	0xbe1230aa	-0.14276376
29	0xbdccb4f3	-0.09995451
30	0x3d651c7c	0.055935368
31	0xbcb2dc13	-0.021833455
32	0xbdade5f0	-0.08491123
33	0x3d917be4	0.071037084
34	0x3d63ed02	0.05564595
35	0xbde3ddad	-0.11126266
36	0x3d0d63d4	0.03451903
37	0x3cb62694	0.022235192
38	0x3c8c062f	0.017092792
39	0x3c4978f4	0.012296904
40	0x3c91498a	0.017735261
41	0x3e662ff7	0.22479235
42	0xbd333231	-0.043749038
43	0xbc68af60	-0.014201969
44	0x3e8f50ec	0.27991426
45	0x00000545	1.89e-42
46	0x80000e5f	-5.155e-42
47	0x000010b6	5.995e-42
48	0x000008ba	3.13e-42
49	0x00000c67	4.449e-42
50	0x00000c64	4.445e-42
51	0x00001492	7.379e-42
52	0x00000d8e	4.863e-42
53	0x80001204	-6.463e-42
54	0x3bb3587d	0.005473195
55	0xbe1f3b89	-0.15550055
56	0x3c087ca8	0.008330502
57	0x3d592846	0.053016923
58	0xbdf5fe08	-0.12011343
59	0xbdd6f492	-0.10495867
60	0x3c744c93	0.014910835
61	0x3e5cfa8c	0.21579951
62	0x3e476d5c	0.19475311
63	0x3dcc7100	0.099824905
64	0x3c358f04	0.011081461
65	0xbb74b02b	-0.003733645
66	0x3d6756fe	0.056479447
67	0x3dca0857	0.09864872
68	0x3d0755af	0.0330407
69	0x3d85297d	0.06502054
70	0xbcb5aabb	-0.022176137
71	0xbd86d9a3	-0.0658448

module1.sepConv1.pointwise.weight f4 [16, 8, 1, 1]
0	0x00000b0e	3.966e-42
1	0x800006b5	-2.406e-42
2	0x8000078e	-2.71e-42
3	0x000004a1	1.66e-42
4	0x80000c51	-4.418e-42
5	0x80000bbc	-4.21e-42
6	0x00000676	2.318e-42
7	0x0000094c	3.335e-42
8	0x8000079d	-2.731e-42
9	0x80001826	-8.663e-42
10	0x80000e41	-5.113e-42
11	0x000015df	7.846e-42
12	0x80000e0f	-5.043e-42
13	0x00000972	3.388e-42
14	0x00000773	2.672e-42
15	0x00000211	7.41e-43
16	0x00000907	3.238e-42
17	0x800004cd	-1.722e-42
18	0x80000e70	-5.179e-42
19	0x80000a8a	-3.781e-42
20	0x80000092	-2.05e-43
21	0x800007be	-2.777e-42
22	0x0000132e	6.88e-42
23	0x00001048	5.84e-42
24	0x00001128	6.155e-42
25	0x80000588	-1.984e-42
26	0x00000af8	3.935e-42
27	0x800008d4	-3.167e-42
28	0x8000072b	-2.571e-42
29	0x00000b5c	4.075e-42
30	0x00000817	2.902e-42
31	0x00000ee4	5.342e-42
32	0x000012fe	6.813e-42
33	0x00000e62	5.16e-42
34	0x80000505	-1.8e-42
35	0x00000020	4.5e-44
36	0x00000f3a	5.462e-42
37	0x800009ac	-3.47e-42
38	0x00000737	2.588e-42
39	0x80000f45	-5.478e-42
40	0x800008b4	-3.122e-42
41	0x00000250	8.3e-43
42	0x80000006	-8e-45
43	0x80000e09	-5.035e-42
44	0x8000188a	-8.803e-42
45	0x800003eb	-1.406e-42
46	0x00000e4f	5.133e-42
47	0x000010f6	6.084e-42
48	0xbe278ef1	-0.16363122
49	0x80000611	-2.176e-42
50	0x3c8278d2	0.015926752
51	0x3e22a835	0.15884478
52	0xbca4cc57	-0.020116968
53	0x80000821	-2.916e-42
54	0x3e64b3eb	0.22334258
55	0x3e038aca	0.12845913
56	0x00000d0a	4.678e-42
57	0x800004e2	-1.752e-42
58	0x8000187b	-8.782e-42
59	0x0000109c	5.958e-42
60	0x00000a5e	3.719e-42
61	0x00000bce	4.235e-42
62	0x00000f5e	5.513e-42
63	0x00001822	8.657e-42
64	0x3d78e1c2	0.060762174
65	0x8000038d	-1.274e-42
66	0xbe5ef92d	-0.2177474
67	0x3def4ec7	0.116849475
68	0xbd585d3e	-0.052823298
69	0x80000391	-1.28e-42
70	0xbd9a3e4b	-0.07531413
71	0xbda039d3	-0.07823529
72	0xbe6b9e81	-0.23009683
73	0x80000622	-2.2e-42
74	0x3e02a2f6	0.12757477
75	0x3ddc4c4d	0.10756741
76	0xbe9750d6	-0.2955386
77	0x8000127f	-6.635e-42
78	0xbe1a1af4	-0.15049344
79	0x3d30ab3b	0.043132048
80	0x00000ac0	3.856e-42
81	0x0000109f	5.963e-42
82	0x00001793	8.457e-42
83	0x000012ca	6.74e-42
84	0x0000103b	5.822e-42
85	0x00000aa7	3.821e-42
86	0x80000509	-1.806e-42
87	0x800003b2	-1.326e-42
88	0x00000ae5	3.908e-42
89	0x8000108c	-5.936e-42
90	0x000004e7	1.759e-42
91	0x0000110f	6.12e-42
92	0x00000343	1.17e-42
93	0x80000f0d	-5.399e-42
94	0x80000d7b	-4.836e-42
95	0x0000109a	5.956e-42
96	0x0000108f	5.94e-42
97	0x0000108a	5.933e-42
98	0x80000ac7	-3.866e-42
99	0x8000037f	-1.254e-42
100	0x80000d1b	-4.701e-42
101	0x80000c78	-4.473e-42
102	0x8000161d	-7.933e-42
103	0x00000ea6	5.255e-42
104	0x80000002	-3e-45
105	0x80000e2d	-5.085e-42
106	0x80000594	-2.001e-42
107	0x80000197	-5.7e-43
108	0x80000f11	-5.405e-42
109	0x80000093	-2.06e-43
110	0x00001481	7.355e-42
111	0x800012cb	-6.742e-42
112	0x0000017c	5.32e-43
113	0x80000556	-1.914e-42
114	0x000003d9	1.38e-42
115	0x80000429	-1.492e-42
116	0x000005ea	2.122e-42
117	0x800005cb	-2.078e-42
118	0x00000f00	5.381e-42
119	0x80000214	-7.45e-43
120	0x0000062e	2.217e-42
121	0x00000343	1.17e-42
122	0x8000109f	-5.963e-42
123	0x8000133b	-6.899e-42
124	0x80001217	-6.49e-42
125	0x00000d19	4.699e-42
126	0x80001106	-6.107e-42
127	0x0000082a	2.929e-42

module1.bn1.weight f4 [16]
0	0x00000616	2.183e-42
1	0x80000a80	-3.767e-42
2	0x000013e7	7.14e-42
3	0x80000200	-7.17e-43
4	0x0000014a	4.62e-43
5	0x0000123c	6.541e-42
6	0x3e953b58	0.29146838
7	0x8000181a	-8.646e-42
8	0x3e678af7	0.22611605
9	0x3ed0e67f	0.40800855
10	0x8000179e	-8.472e-42
11	0x80000046	-9.8e-44
12	0x800005b5	-2.047e-42
13	0x00001140	6.188e-42
14	0x000000f0	3.36e-43
15	0x00001391	7.019e-42

module1.bn1.bias f4 [16]
0	0x00001115	6.128e-42
1	0x80000930	-3.296e-42
2	0x800007ae	-2.755e-42
3	0x80000ac0	-3.856e-42
4	0x00000adf	3.9e-42
5	0x00000005	7e-45
6	0x3c4cedbe	0.012507854
7	0x80000453	-1.551e-42
8	0x3e780740	0.24221516
9	0x3ca6fe4f	0.020384936
10	0x80000c50	-4.417e-42
11	0x80000a28	-3.643e-42
12	0x80000df5	-5.007e-42
13	0x8000038f	-1.277e-42
14	0x80000130	-4.26e-43
15	0x00000cf7	4.651e-42

module1.bn1.running_mean f4 [16]
0	0x00000001	1e-45
1	0x00000022	4.8e-44
2	0x0000001a	3.6e-44
3	0x80000085	-1.86e-43
4	0x000000fa	3.5e-43
5	0x80000064	-1.4e-43
6	0x3bada5f8	0.005299326
7	0x000000d2	2.94e-43
8	0xbac0e4c0	-0.001471661
9	0xbc1e0a00	-0.009645939
10	0x800000ce	-2.89e-43
11	0x800000ac	-2.41e-43
12	0x000000bc	2.63e-43
13	0x00000031	6.9e-44
14	0x0000007b	1.72e-43
15	0x00000075	1.64e-43

module1.bn1.running_var f4 [16]
0	0x00000000	0.0
1	0x00000000	0.0
2	0x00000000	0.0
3	0x00000000	0.0
4	0x00000000	0.0
5	0x00000000	0.0
6	0x39305a8e	0.00016818402
7	0x00000000	0.0
8	0x390b4b16	0.00013284045
9	0x3971f243	0.000230738
10	0x00000000	0.0
11	0x00000000	0.0
12	0x00000000	0.0
13	0x00000000	0.0
14	0x00000000	0.0
15	0x00000000	0.0

module1.sepConv2.depthwise.weight f4 [16, 1, 3, 3]
0	0x000012f7	6.803e-42
1	0x80000e39	-5.102e-42
2	0x80000f6b	-5.531e-42
3	0x80001617	-7.924e-42
4	0x80000854	-2.988e-42
5	0x000013f4	7.158e-42
6	0x00000e43	5.116e-42
7	0x8000044d	-1.543e-42
8	0x800004ff	-1.792e-42
9	0x800013ab	-7.056e-42
10	0x000010d6	6.04e-42
11	0x80000f2c	-5.443e-42
12	0x80000d03	-4.668e-42
13	0x8000140c	-7.191e-42
14	0x8000111c	-6.138e-42
15	0x80000de2	-4.98e-42
16	0x00001109	6.111e-42
17	0x80000f12	-5.406e-42
18	0x00000b30	4.013e-42
19	0x800007d3	-2.807e-42
20	0x0000016e	5.13e-43
21	0x80001033	-5.811e-42
22	0x8000005c	-1.29e-43
23	0x8000115f	-6.232e-42
24	0x80000d81	-4.844e-42
25	0x800015fc	-7.887e-42
26	0x00001593	7.74e-42
27	0x80000af7	-3.933e-42
28	0x00000afd	3.942e-42
29	0x800010ab	-5.98e-42
30	0x80000d79	-4.833e-42
31	0x000010c3	6.013e-42
32	0x80000c4b	-4.41e-42
33	0x800001c8	-6.39e-43
34	0x800012e7	-6.781e-42
35	0x800008db	-3.177e-42
36	0x00000dee	4.997e-42
37	0x800010e3	-6.058e-42
38	0x80001243	-6.551e-42
39	0x800005b7	-2.05e-42
40	0x800001a0	-5.83e-43
41	0x800005eb	-2.123e-42
42	0x0000067b	2.325e-42
43	0x00000cc6	4.582e-42
44	0x80000696	-2.363e-42
45	0x800016b4	-8.144e-42
46	0x800010a0	-5.964e-42
47	0x000015e9	7.86e-42
48	0x800000f7	-3.46e-43
49	0x80000e98	-5.235e-42
50	0x00000d73	4.825e-42
51	0x8000113e	-6.185e-42
52	0x00000610	2.175e-42
53	0x000008e5	3.191e-42
54	0x3db96821	0.09053064
55	0x3db7420a	0.08948143
56	0x3df46ed4	0.11935201
57	0x3d18de4c	0.037321374
58	0x3dc0d2f8	0.09415239
59	0x3e15bb69	0.14622273
60	0x3e20eeb8	0.15716064
61	0x3dcece0a	0.100978926
62	0x3de007fd	0.10939024
63	0x00000e9f	5.245e-42
64	0x800001d1	-6.52e-43
65	0x80000bfc	-4.299e-42
66	0x80000d67	-4.808e-42
67	0x000004bc	1.698e-42
68	0x80000bd7	-4.247e-42
69	0x80001000	-5.74e-42
70	0x80000590	-1.995e-42
71	0x00000a2a	3.646e-42
72	0x3db13188	0.086520255
73	0xbd8ca3a6	-0.06867151
74	0x3c730183	0.014831903
75	0xbd85a42a	-0.065254524
76	0x3e93dc50	0.28879023
77	0xbe569096	-0.20953593
78	0xbc80085b	-0.015628984
79	0x3e059001	0.13043214
80	0xbda4d309	-0.08048064
81	0x3c98a5c9	0.01863374
82	0xbca0a38e	-0.019609239
83	0xbe166ee2	-0.14690736
84	0xbd84a78b	-0.06477269
85	0xbe980867	-0.2969391
86	0xbda654bd	-0.08121631
87	0xbe4d5446	-0.20051679
88	0xbe0d2e03	-0.13787083
89	0x3c590395	0.013245483
90	0x00000a02	3.59e-42
91	0x8000128d	-6.655e-42
92	0x00000fd6	5.681e-42
93	0x0000057e	1.97e-42
94	0x0000032d	1.139e-42
95	0x0000119a	6.314e-42
96	0x00000579	1.963e-42
97	0x00001570	7.69e-42
98	0x80000b7d	-4.121e-42
99	0x00001169	6.246e-42
100	0x800015d9	-7.837e-42
101	0x80001301	-6.817e-42
102	0x00001294	6.665e-42
103	0x0000082f	2.936e-42
104	0x80001643	-7.986e-42
105	0x000010f2	6.079e-42
106	0x800010d1	-6.033e-42
107	0x80000641	-2.243e-42
108	0x800007f3	-2.852e-42
109	0x800008b7	-3.126e-42
110	0x00000edd	5.332e-42
111	0x800005b9	-2.053e-42
112	0x0000104b	5.845e-42
113	0x0000084f	2.98e-42
114	0x000013b7	7.072e-42
115	0x00000d29	4.721e-42
116	0x800009ef	-3.564e-42
117	0x80000397	-1.288e-42
118	0x80000e5b	-5.15e-42
119	0x00000ce1	4.62e-42
120	0x00000a50	3.7e-42
121	0x80000bd4	-4.243e-42
122	0x00000dce	4.952e-42
123	0x00001368	6.962e-42
124	0x00000ca8	4.54e-42
125	0x00000d30	4.731e-42
126	0x000008a0	3.094e-42
127	0x0000076d	2.664e-42
128	0x8000133b	-6.899e-42
129	0x80000cb5	-4.558e-42
130	0x000012a4	6.687e-42
131	0x80001369	-6.963e-42
132	0x00001561	7.67e-42
133	0x00001632	7.962e-42
134	0x00001262	6.595e-42
135	0x000008ca	3.153e-42
136	0x80000757	-2.633e-42
137	0x80000ea1	-5.248e-42
138	0x80000f57	-5.503e-42
139	0x00000b13	3.973e-42
140	0x80000525	-1.846e-42
141	0x00000011	2.4e-44
142	0x000002cc	1.003e-42
143	0x0000094d	3.336e-42

module1.sepConv2.pointwise.weight f4 [16, 16, 1, 1]
0	0x00001117	6.13e-42
1	0x80001294	-6.665e-42
2	0x800006ed	-2.485e-42
3	0x000006a7	2.386e-42
4	0x000007af	2.756e-42
5	0x00001980	9.148e-42
6	0x00000874	3.032e-42
7	0x80000af8	-3.935e-42
8	0x800008af	-3.115e-42
9	0x80000d04	-4.669e-42
10	0x80000459	-1.56e-42
11	0x80000e6b	-5.172e-42
12	0x80000bc6	-4.224e-42
13	0x00000df7	5.01e-42
14	0x00000f2e	5.445e-42
15	0x000000a7	2.34e-43
16	0x000005de	2.105e-42
17	0x00000b2f	4.012e-42
18	0x0000058c	1.99e-42
19	0x800000c8	-2.8e-43
20	0x00001173	6.26e-42
21	0x00000b35	4.02e-42
22	0x3dde1eec	0.10845742
23	0x80000247	-8.17e-43
24	0x3c8bad0b	0.017050287
25	0x3e7b85d9	0.24562778
26	0x80000b53	-4.062e-42
27	0x80000b39	-4.026e-42
28	0x80000565	-1.935e-42
29	0x0000011f	4.02e-43
30	0x00000eb9	5.281e-42
31	0x00000d07	4.673e-42
32	0x80000063	-1.39e-43
33	0x000005ab	2.033e-42
34	0x80000a26	-3.64e-42
35	0x800005cf	-2.084e-42
36	0x00000501	1.795e-42
37	0x00000bc4	4.221e-42
38	0x00001557	7.655e-42
39	0x80000132	-4.29e-43
40	0x0000128a	6.65e-42
41	0x0000021c	7.57e-43
42	0x0000087c	3.044e-42
43	0x800010bd	-6.005e-42
44	0x00000f4e	5.49e-42
45	0x000001f7	7.05e-43
46	0x800005c4	-2.068e-42
47	0x00001365	6.957e-42
48	0x0000018d	5.56e-43
49	0x80000568	-1.94e-42
50	0x00000e5c	5.151e-42
51	0x80000ef6	-5.367e-42
52	0x80001371	-6.974e-42
53	0x8000037f	-1.254e-42
54	0x3a8b41fc	0.0010624523
55	0x00000735	2.585e-42
56	0x3eb02154	0.34400427
57	0x37a7ad9e	1.9988798e-05
58	0x80000b86	-4.134e-42
59	0x800005a3	-2.022e-42
60	0x80000dfa	-5.014e-42
61	0x800015e0	-7.847e-42
62	0x80000599	-2.008e-42
63	0x80000cef	-4.64e-42
64	0x000008f4	3.212e-42
65	0x0000077d	2.686e-42
66	0x0000131c	6.855e-42
67	0x00000c88	4.495e-42
68	0x00000671	2.311e-42
69	0x8000084d	-2.978e-42
70	0x000013f4	7.158e-42
71	0x80000d37	-4.74e-42
72	0x80000262	-8.55e-43
73	0x00000a2b	3.648e-42
74	0x000016e8	8.217e-42
75	0x800000fe	-3.56e-43
76	0x00000bc9	4.228e-42
77	0x00000990	3.43e-42
78	0x00000015	3e-44
79	0x80000f5a	-5.507e-42
80	0x00001209	6.47e-42
81	0x80000bfe	-4.302e-42
82	0x800009c6	-3.506e-42
83	0x00001505	7.54e-42
84	0x000012a6	6.69e-42
85	0x80000428	-1.491e-42
86	0x80000f57	-5.503e-42
87	0x800001c5	-6.35e-43
88	0x80000b51	-4.06e-42
89	0x00000842	2.962e-42
90	0x80000f83	-5.565e-42
91	0x80000ff9	-5.73e-42
92	0x800004b7	-1.691e-42
93	0x8000077c	-2.685e-42
94	0x80000897	-3.081e-42
95	0x00001136	6.174e-42
96	0x80000782	-2.693e-42
97	0x800001f5	-7.02e-43
98	0x80000a31	-3.656e-42
99	0x80000af6	-3.932e-42
100	0x0000064b	2.257e-42
101	0x800006ff	-2.51e-42
102	0x0000124b	6.562e-42
103	0x00000e7d	5.197e-42
104	0x80000159	-4.83e-43
105	0x80000784	-2.696e-42
106	0x80000cc9	-4.586e-42
107	0x000002d2	1.012e-42
108	0x800004c8	-1.715e-42
109	0x000009b3	3.48e-42
110	0x80000542	-1.886e-42
111	0x80000011	-2.4e-44
112	0x80000ca8	-4.54e-42
113	0x00000e23	5.071e-42
114	0x800014ea	-7.503e-42
115	0x00000685	2.339e-42
116	0x00000273	8.79e-43
117	0x0000184d	8.717e-42
118	0x00000d5f	4.797e-42
119	0x800003c3	-1.35e-42
120	0x80000da8	-4.899e-42
121	0x00000f92	5.586e-42
122	0x00000170	5.16e-43
123	0x800001aa	-5.97e-43
124	0x800001dc	-6.67e-43
125	0x8000069a	-2.368e-42
126	0x8000075f	-2.644e-42
127	0x0000046c	1.586e-42
128	0x00000b8e	4.145e-42
129	0x8000184d	-8.717e-42
130	0x80000957	-3.35e-42
131	0x8000162e	-7.957e-42
132	0x0000133d	6.901e-42
133	0x80000284	-9.02e-43
134	0x00000aff	3.945e-42
135	0x80000569	-1.941e-42
136	0x00000b91	4.149e-42
137	0x00000e55	5.141e-42
138	0x000016b6	8.147e-42
139	0x800009db	-3.535e-42
140	0x00000b92	4.15e-42
141	0x80000b00	-3.946e-42
142	0x80000c1c	-4.344e-42
143	0x00000a64	3.727e-42
144	0x80000803	-2.874e-42
145	0x800001f5	-7.02e-43
146	0x800005d1	-2.087e-42
147	0x80000853	-2.986e-42
148	0x000005ca	2.077e-42
149	0x00000e52	5.137e-42
150	0x3e8a0d7a	0.26963407
151	0x8000067f	-2.33e-42
152	0x3d9e5c01	0.07732392
153	0xbc868c44	-0.016424306
154	0x80000a8b	-3.782e-42
155	0x80000e0d	-5.04e-42
156	0x80000bff	-4.303e-42
157	0x80001096	-5.95e-42
158	0x00000998	3.442e-42
159	0x0000055b	1.921e-42
160	0x0000091d	3.269e-42
161	0x00001178	6.267e-42
162	0x00000017	3.2e-44
163	0x80000162	-4.96e-43
164	0x00000041	9.1e-44
165	0x00000703	2.515e-42
166	0x3e3c7efb	0.18407814
167	0x00000012	2.5e-44
168	0x3c57a51a	0.013161922
169	0x3e4fadb2	0.20281103
170	0x00000379	1.246e-42
171	0x8000020e	-7.37e-43
172	0x80000b22	-3.994e-42
173	0x80000a8d	-3.785e-42
174	0x8000013e	-4.46e-43
175	0x00000396	1.286e-42
176	0x0000159e	7.755e-42
177	0x000016ac	8.133e-42
178	0x80000b87	-4.135e-42
179	0x00000b82	4.128e-42
180	0x80000d01	-4.665e-42
181	0x00000d25	4.715e-42
182	0x8000136b	-6.966e-42
183	0x00000856	2.99e-42
184	0x0000034f	1.187e-42
185	0x0000181c	8.649e-42
186	0x00000b7a	4.117e-42
187	0x800009c5	-3.505e-42
188	0x000004c3	1.708e-42
189	0x80000c14	-4.333e-42
190	0x80001423	-7.224e-42
191	0x0000139f	7.039e-42
192	0x00000d41	4.755e-42
193	0x000006df	2.465e-42
194	0x00000cfa	4.655e-42
195	0x00001620	7.937e-42
196	0x00000d38	4.742e-42
197	0x800002a3	-9.46e-43
198	0x3bbafbdf	0.005706295
199	0x00000f43	5.475e-42
200	0xbde2b3fe	-0.11069487
201	0x3e911c2a	0.283418
202	0x80001084	-5.925e-42
203	0x80000231	-7.86e-43
204	0x80000510	-1.816e-42
205	0x000004e0	1.749e-42
206	0x00000061	1.36e-43
207	0x00001880	8.789e-42
208	0x00000dfb	5.015e-42
209	0x000005e8	2.119e-42
210	0x000004f4	1.777e-42
211	0x00001986	9.156e-42
212	0x00000c33	4.376e-42
213	0x80000ca9	-4.542e-42
214	0xbc88dd8b	-0.016707202
215	0x000008e4	3.19e-42
216	0xbba117af	-0.0049161534
217	0x3be07410	0.006849773
218	0x000012d1	6.75e-42
219	0x800011a6	-6.331e-42
220	0x80001221	-6.503e-42
221	0x80000af4	-3.929e-42
222	0x80000ca8	-4.54e-42
223	0x80000b26	-4e-42
224	0x80000e2f	-5.088e-42
225	0x800019b8	-9.226e-42
226	0x80000faf	-5.626e-42
227	0x00000135	4.33e-43
228	0x00000bb4	4.198e-42
229	0x0000098b	3.423e-42
230	0x00000d94	4.871e-42
231	0x80000926	-3.282e-42
232	0x0000136e	6.97e-42
233	0x00000a74	3.75e-42
234	0x000008ed	3.202e-42
235	0x80000af4	-3.929e-42
236	0x80000518	-1.827e-42
237	0x00000d4b	4.769e-42
238	0x000003c2	1.348e-42
239	0x80000b93	-4.152e-42
240	0x80000ec1	-5.293e-42
241	0x0000074f	2.622e-42
242	0x00001149	6.201e-42
243	0x00000917	3.261e-42
244	0x800011a2	-6.325e-42
245	0x8000050b	-1.809e-42
246	0x000004af	1.68e-42
247	0x00000d7b	4.836e-42
248	0x00000786	2.699e-42
249	0x0000086f	3.025e-42
250	0x000008eb	3.199e-42
251	0x80000ca0	-4.529e-42
252	0x800006fd	-2.507e-42
253	0x80000307	-1.086e-42
254	0x8000057e	-1.97e-42
255	0x80000257	-8.4e-43

module1.bn2.weight f4 [16]
0	0x80001389	-7.008e-42
1	0xbe80e37c	-0.25173557
2	0x80000396	-1.286e-42
3	0x3ea51a2a	0.32246524
4	0x80000b13	-3.973e-42
5	0x800010cb	-6.024e-42
6	0x80000a90	-3.789e-42
7	0x00000f4d	5.489e-42
8	0x8000059d	-2.014e-42
9	0x3e8078d5	0.25092188
10	0x3e85e8be	0.2615413
11	0x80000ccc	-4.59e-42
12	0x3ea11653	0.31462345
13	0xbc8bba8d	-0.017056728
14	0x80000c0d	-4.323e-42
15	0x00000647	2.252e-42

module1.bn2.bias f4 [16]
0	0x8604b7b9	-2.496142e-35
1	0xbbc12c3c	-0.0058951657
2	0x06b565d2	6.8234244e-35
3	0x3cdf781f	0.027278958
4	0x07010bf7	9.708398e-35
5	0x084e4487	6.2071424e-34
6	0x86d1a1ea	-7.8854974e-35
7	0x881e1bf1	-4.757924e-34
8	0x8729aa06	-1.2764112e-34
9	0xbccf2c10	-0.025289565
10	0x3cb53e0e	0.022124317
11	0x06a8a0a3	6.343061e-35
12	0x3cfb7e20	0.03069979
13	0xbddae667	-0.10688477
14	0x07461fd0	1.4905213e-34
15	0x8591b2db	-1.3701436e-35

module1.bn2.running_mean f4 [16]
0	0x00000191	5.62e-43
1	0xbc402b23	-0.011729035
2	0x000001a9	5.96e-43
3	0x3beec468	0.007286597
4	0x0000005d	1.3e-43
5	0x800000c0	-2.69e-43
6	0x000000aa	2.38e-43
7	0x8000010d	-3.77e-43
8	0x000000a5	2.31e-43
9	0x3c65a656	0.014016708
10	0xbbbc6d5e	-0.0057503423
11	0x80000240	-8.07e-43
12	0xbcae489d	-0.02127486
13	0xbaa5dc35	-0.0012654128
14	0x80000114	-3.87e-43
15	0x00000060	1.35e-43

module1.bn2.running_var f4 [16]
0	0x00000000	0.0
1	0x39361a90	0.00017366768
2	0x00000000	0.0
3	0x390cf6b0	0.00013443339
4	0x00000000	0.0
5	0x00000000	0.0
6	0x00000000	0.0
7	0x00000000	0.0
8	0x00000000	0.0
9	0x391eadc8	0.00015132793
10	0x3928312c	0.00016040046
11	0x00000000	0.0
12	0x39546290	0.00020254613
13	0x35457734	7.356168e-07
14	0x00000000	0.0
15	0x00000000	0.0

module2.residual_conv.weight f4 [32, 16, 1, 1]
0	0x000004db	1.742e-42
1	0x80000a1f	-3.631e-42
2	0x80000ca2	-4.532e-42
3	0x80000ea4	-5.252e-42
4	0x8000018e	-5.58e-43
5	0x800015ce	-7.822e-42
6	0x800011f2	-6.438e-42
7	0x80000567	-1.938e-42
8	0x80000074	-1.63e-43
9	0x80000e94	-5.23e-42
10	0x8000089c	-3.088e-42
11	0x00001306	6.824e-42
12	0x00000d0a	4.678e-42
13	0x0000078f	2.712e-42
14	0x8000001d	-4e-44
15	0x800003fe	-1.432e-42
16	0x0279e763	1.8360036e-37
17	0x3b589e80	0.0033053458
18	0x80004ae5	-2.6867e-41
19	0xbcf5df00	-0.030013561
20	0x80001591	-7.737e-42
21	0x80001644	-7.987e-42
22	0x00552247	7.818314e-39
23	0x03367b86	5.362679e-37
24	0x00008508	4.7723e-41
25	0x3d9680e2	0.07348801
26	0x3b29ee08	0.0025929231
27	0x01976d07	5.5625086e-38
28	0x3c8a70f6	0.016899567
29	0x3d14b6d3	0.036307167
30	0x840659fe	-1.5792947e-36
31	0x01dc5c41	8.0947614e-38
32	0x80001399	-7.03e-42
33	0x80000641	-2.243e-42
34	0x000010a1	5.965e-42
35	0x00000f08	5.392e-42
36	0x80000fa2	-5.608e-42
37	0x00000638	2.231e-42
38	0x800005ed	-2.126e-42
39	0x00000b94	4.153e-42
40	0x00000c01	4.306e-42
41	0x0000028c	9.14e-43
42	0x80000539	-1.874e-42
43	0x00000dcf	4.954e-42
44	0x80000c65	-4.446e-42
45	0x000004d4	1.732e-42
46	0x00000581	1.974e-42
47	0x800016cd	-8.18e-42
48	0x80001982	-9.15e-42
49	0x3dcf4d37	0.101221494
50	0x80001592	-7.738e-42
51	0x3cbd7aab	0.023129782
52	0x000120ec	1.03646e-40
53	0x03839573	7.7338e-37
54	0x02774f80	1.8169509e-37
55	0x8293f93a	-2.1742758e-37
56	0x02b921a6	2.720262e-37
57	0xbcc67253	-0.024224436
58	0xbd2719c1	-0.040796045
59	0x81be7b67	-6.997205e-38
60	0x3bb74a38	0.0055935644
61	0xbcde9e9f	-0.027175246
62	0x040d5318	1.6612625e-36
63	0x80000362	-1.214e-42
64	0x80079579	-6.96469e-40
65	0x3ccc14f9	0.024912344
66	0x0000163d	7.978e-42
67	0x3dc3e436	0.09565012
68	0x82802720	-1.8830366e-37
69	0x000006f2	2.492e-42
70	0x81ce2508	-7.5725586e-38
71	0x828f5fcf	-2.1066953e-37
72	0x8000846d	-4.7505e-41
73	0x3cadca2e	0.02121457
74	0x3ccee16f	0.02525398
75	0x80000bb8	-4.204e-42
76	0x3d58cbf6	0.052928887
77	0x3b43cea0	0.0029877797
78	0x81ea8372	-8.614664e-38
79	0x00000e33	5.094e-42
80	0x00001053	5.856e-42
81	0x8000001f	-4.3e-44
82	0x80000450	-1.547e-42
83	0x000013c6	7.093e-42
84	0x8000131b	-6.854e-42
85	0x00000ee3	5.34e-42
86	0x0000117c	6.272e-42
87	0x000007aa	2.75e-42
88	0x00000229	7.75e-43
89	0x80000a82	-3.77e-42
90	0x000010b9	5.999e-42
91	0x8000011e	-4.01e-43
92	0x00000825	2.922e-42
93	0x00000dbf	4.931e-42
94	0x80001803	-8.614e-42
95	0x80000021	-4.6e-44
96	0x80000558	-1.917e-42
97	0x0000083a	2.951e-42
98	0x800013f2	-7.155e-42
99	0x0000061f	2.196e-42
100	0x80000e67	-5.167e-42
101	0x000004ea	1.763e-42
102	0x80000c53	-4.421e-42
103	0x0000032c	1.138e-42
104	0x00000331	1.145e-42
105	0x000006f9	2.501e-42
106	0x0000049f	1.658e-42
107	0x00000393	1.282e-42
108	0x80000bdf	-4.259e-42
109	0x800008ba	-3.13e-42
110	0x00000bdb	4.253e-42
111	0x80000d23	-4.713e-42
112	0x00000b23	3.995e-42
113	0x00001418	7.208e-42
114	0x000007a8	2.747e-42
115	0x00001393	7.022e-42
116	0x80001991	-9.171e-42
117	0x80000ce6	-4.627e-42
118	0x80000c7e	-4.481e-42
119	0x000015b6	7.788e-42
120	0x8000169f	-8.115e-42
121	0x8000086e	-3.024e-42
122	0x80000156	-4.79e-43
123	0x000004e7	1.759e-42
124	0x000008ac	3.111e-42
125	0x8000061b	-2.19e-42
126	0x800009cd	-3.516e-42
127	0x80000699	-2.367e-42
128	0x800014fe	-7.53e-42
129	0x00000f84	5.566e-42
130	0x00000e0a	5.036e-42
131	0x00000d15	4.693e-42
132	0x80000170	-5.16e-43
133	0x80000e18	-5.056e-42
134	0x00000776	2.676e-42
135	0x000005ff	2.151e-42
136	0x00000e35	5.097e-42
137	0x000007b1	2.759e-42
138	0x8000161d	-7.933e-42
139	0x00000b00	3.946e-42
140	0x800004ea	-1.763e-42
141	0x80000b1c	-3.985e-42
142	0x80000d2b	-4.724e-42
143	0x80000e01	-5.024e-42
144	0x0000002b	6e-44
145	0x800001f1	-6.96e-43
146	0x8000063e	-2.239e-42
147	0x00000a96	3.798e-42
148	0x80000671	-2.311e-42
149	0x80000bc0	-4.215e-42
150	0x00000c05	4.312e-42
151	0x00000e30	5.09e-42
152	0x800008a1	-3.095e-42
153	0x80000855	-2.989e-42
154	0x800001eb	-6.88e-43
155	0x0000056a	1.942e-42
156	0x80000521	-1.84e-42
157	0x80001309	-6.829e-42
158	0x00001103	6.103e-42
159	0x800005a9	-2.03e-42
160	0x82b1d2f0	-2.6128885e-37
161	0x3c9d77cf	0.019222168
162	0x828cf5d7	-2.0712256e-37
163	0x3cf8417f	0.030304668
164	0x000a323a	9.36373e-40
165	0x820cc037	-1.0340739e-37
166	0x00223144	3.14008e-39
167	0x82d16946	-3.0770214e-37
168	0x01ca1a0b	7.424045e-38
169	0x3cafdc2f	0.021467296
170	0xbd608688	-0.0548158
171	0x00267951	3.533269e-39
172	0xbd8f96f2	-0.070112124
173	0x3c949b5e	0.018140491
174	0x84136e32	-1.7330366e-36
175	0x0187eb0d	4.992845e-38
176	0x00000703	2.515e-42
177	0x80000e99	-5.237e-42
178	0x800001c1	-6.29e-43
179	0x00001165	6.24e-42
180	0x00000291	9.2e-43
181	0x00000d10	4.686e-42
182	0x800004f5	-1.778e-42
183	0x80000cdf	-4.617e-42
184	0x800001d6	-6.59e-43
185	0x80000adc	-3.896e-42
186	0x8000084e	-2.979e-42
187	0x800006c2	-2.424e-42
188	0x000012a5	6.688e-42
189	0x00000553	1.91e-42
190	0x80000f6a	-5.53e-42
191	0x800004b7	-1.691e-42
192	0x829dcbe4	-2.3186104e-37
193	0x3c8c4cdf	0.017126499
194	0x823aea47	-1.3732356e-37
195	0x3d4ed5fc	0.05049704
196	0x8269bf87	-1.7173102e-37
197	0x03111e18	4.2646216e-37
198	0x023d7e17	1.3921713e-37
199	0x80012d28	-1.08035e-40
200	0x0000c648	7.113e-41
201	0xbb4c4132	-0.003116679
202	0x3d00e8fc	0.03147219
203	0x81277d5b	-3.0762994e-38
204	0x3cb5db17	0.022199197
205	0x3b4485bf	0.0029986945
206	0x800056e9	-3.1177e-41
207	0x80000334	-1.149e-42
208	0x0000143e	7.262e-42
209	0x8000067b	-2.325e-42
210	0x80000711	-2.535e-42
211	0x00000339	1.156e-42
212	0x0000085a	2.996e-42
213	0x00000d20	4.708e-42
214	0x000010fd	6.094e-42
215	0x80000f45	-5.478e-42
216	0x800010f7	-6.086e-42
217	0x00000642	2.245e-42
218	0x80000a93	-3.793e-42
219	0x00000095	2.09e-43
220	0x80001029	-5.797e-42
221	0x800013f4	-7.158e-42
222	0x80000bdf	-4.259e-42
223	0x00000bfa	4.296e-42
224	0x80001131	-6.167e-42
225	0x80000d0f	-4.685e-42
226	0x80000521	-1.84e-42
227	0x800002bc	-9.81e-43
228	0x80000a96	-3.798e-42
229	0x00000f03	5.385e-42
230	0x80000f49	-5.483e-42
231	0x800006fa	-2.503e-42
232	0x80000ac1	-3.858e-42
233	0x00000bd9	4.25e-42
234	0x00000a61	3.723e-42
235	0x00001114	6.126e-42
236	0x000002bf	9.85e-43
237	0x8000119d	-6.318e-42
238	0x00000813	2.896e-42
239	0x8000137b	-6.988e-42
240	0x0000072b	2.571e-42
241	0x00000443	1.529e-42
242	0x00000ae0	3.901e-42
243	0x80000d0a	-4.678e-42
244	0x00000405	1.442e-42
245	0x00001661	8.028e-42
246	0x800015a4	-7.763e-42
247	0x800004ee	-1.768e-42
248	0x80001601	-7.894e-42
249	0x000010a1	5.965e-42
250	0x000012f4	6.799e-42
251	0x8000020d	-7.36e-43
252	0x800004d0	-1.726e-42
253	0x80001314	-6.844e-42
254	0x00000307	1.086e-42
255	0x80000fa7	-5.615e-42

module2.residual_bn.weight f4 [32]
0	0x80000397	-1.288e-42
1	0x3d617d0c	0.055050895
2	0x00000073	1.61e-43
3	0x3d78c9b9	0.060739253
4	0xbd9205fb	-0.07130047
5	0x80001127	-6.153e-42
6	0x0000170a	8.265e-42
7	0x00000c9a	4.52e-42
8	0x00000aa0	3.812e-42
9	0x00000e25	5.074e-42
10	0xbd830792	-0.06397928
11	0x0000159f	7.756e-42
12	0xbd15aaf0	-0.03653997
13	0x00000101	3.6e-43
14	0x80000c76	-4.47e-42
15	0x80000086	-1.88e-43
16	0x80000953	-3.345e-42
17	0x3d1a2e16	0.037641607
18	0x80000d3a	-4.745e-42
19	0x800008bb	-3.132e-42
20	0x00000f3d	5.466e-42
21	0x00000550	1.906e-42
22	0xbd0de342	-0.034640558
23	0x80000d01	-4.665e-42
24	0x00000562	1.931e-42
25	0x3d887abb	0.06664034
26	0x8000075b	-2.639e-42
27	0x80000b0c	-3.963e-42
28	0x00000a24	3.638e-42
29	0x80000116	-3.9e-43
30	0x80000e8d	-5.22e-42
31	0x80000f35	-5.455e-42

module2.residual_bn.bias f4 [32]
0	0x00000fc5	5.657e-42
1	0x3ce8f4ed	0.028437102
2	0x00000e96	5.232e-42
3	0xbcf7e018	-0.030258223
4	0xbd019d7c	-0.03164433
5	0x80000e4a	-5.126e-42
6	0x00000f2d	5.444e-42
7	0x00001284	6.642e-42
8	0x80000c88	-4.495e-42
9	0x80000acd	-3.875e-42
10	0xbc4bdcb0	-0.012442753
11	0x0000050a	1.808e-42
12	0xbd3c733f	-0.046008345
13	0x800013b1	-7.064e-42
14	0x00000383	1.26e-42
15	0x800015fe	-7.89e-42
16	0x00000b2c	4.008e-42
17	0xbc121266	-0.008915519
18	0x0000129c	6.676e-42
19	0x000006b0	2.399e-42
20	0x000001ea	6.87e-43
21	0x8000090b	-3.244e-42
22	0xbc845bab	-0.016156992
23	0x8000020e	-7.37e-43
24	0x000003bc	1.34e-42
25	0xbd9b1a8c	-0.07573423
26	0x80001180	-6.278e-42
27	0x80000d03	-4.668e-42
28	0x8000197b	-9.14e-42
29	0x80000a54	-3.705e-42
30	0x0000049a	1.651e-42
31	0x0000188f	8.81e-42

module2.residual_bn.running_mean f4 [32]
0	0x8000028a	-9.11e-43
1	0xbc05a8b9	-0.008157902
2	0x80000452	-1.55e-42
3	0x3c425967	0.0118621355
4	0x3cdea208	0.027176872
5	0x000000e2	3.17e-43
6	0x000000ea	3.28e-43
7	0x0000079c	2.73e-42
8	0x000001f0	6.95e-43
9	0x0000066c	2.304e-42
10	0xbc7928b3	-0.015207457
11	0x80000005	-7e-45
12	0x3c7a2d17	0.015269539
13	0x000000a3	2.28e-43
14	0x000004ef	1.77e-42
15	0x0000016e	5.13e-43
16	0x000007a9	2.748e-42
17	0x3bda5552	0.006663003
18	0x00000120	4.04e-43
19	0x80000385	-1.263e-42
20	0x000003a0	1.3e-42
21	0x800005ff	-2.151e-42
22	0xba013ddd	-0.0004930178
23	0x8000002b	-6e-44
24	0x000001e2	6.75e-43
25	0x3c45ad49	0.01206524
26	0x000000f1	3.38e-43
27	0x000001bb	6.21e-43
28	0x800005b4	-2.046e-42
29	0x80000074	-1.63e-43
30	0x00000046	9.8e-44
31	0x00000194	5.66e-43

module2.residual_bn.running_var f4 [32]
0	0x00000000	0.0
1	0x38d42e46	0.00010117567
2	0x00000000	0.0
3	0x395b92ce	0.00020940157
4	0x394974de	0.0001921239
5	0x00000000	0.0
6	0x00000000	0.0
7	0x00000000	0.0
8	0x00000000	0.0
9	0x00000000	0.0
10	0x3906022d	0.00012780046
11	0x00000000	0.0
12	0x3859d5ae	5.1935836e-05
13	0x00000000	0.0
14	0x00000000	0.0
15	0x00000000	0.0
16	0x00000000	0.0
17	0x37b36280	2.138433e-05
18	0x00000000	0.0
19	0x00000000	0.0
20	0x00000000	0.0
21	0x00000000	0.0
22	0x38900878	6.8680325e-05
23	0x00000000	0.0
24	0x00000000	0.0
25	0x3892a1b7	6.991944e-05
26	0x00000000	0.0
27	0x00000000	0.0
28	0x00000000	0.0
29	0x00000000	0.0
30	0x00000000	0.0
31	0x00000000	0.0

module2.sepConv1.depthwise.weight f4 [16, 1, 3, 3]
0	0x800009b9	-3.488e-42
1	0x80000039	-8e-44
2	0x000005c3	2.067e-42
3	0x80000db5	-4.917e-42
4	0x8000065c	-2.281e-42
5	0x00001201	6.459e-42
6	0x0000037c	1.25e-42
7	0x00001368	6.962e-42
8	0x800013d8	-7.119e-42
9	0xbd9fcd77	-0.07802861
10	0xbe15627c	-0.1458835
11	0xbdebc93e	-0.11512993
12	0x3cba3e4f	0.02273479
13	0xbe1c1894	-0.15243751
14	0xbdc4a308	-0.09601408
15	0x3d0e97d1	0.034812752
16	0xbdad0f8f	-0.08450233
17	0xbb6fb2f8	-0.003657518
18	0x00000f15	5.41e-42
19	0x00001643	7.986e-42
20	0x8000101c	-5.779e-42
21	0x00000cbc	4.568e-42
22	0x0000082d	2.933e-42
23	0x800002d6	-1.017e-42
24	0x80000a50	-3.7e-42
25	0x80000ca8	-4.54e-42
26	0x00000c95	4.514e-42
27	0x3ccc7076	0.02495597
28	0x3d68ec8c	0.056866214
29	0x3c0903c7	0.008362717
30	0xbd019380	-0.031634808
31	0xbd801aec	-0.06255135
32	0xb99efb0c	-0.00030323153
33	0xbe35627c	-0.1771335
34	0xbe89e1c4	-0.26930058
35	0xbddbfe1d	-0.10741828
36	0x000015aa	7.772e-42
37	0x000007da	2.817e-42
38	0x000011fb	6.45e-42
39	0x00000842	2.962e-42
40	0x800011de	-6.41e-42
41	0x80001777	-8.418e-42
42	0x0000137d	6.991e-42
43	0x80000a66	-3.73e-42
44	0x00000380	1.256e-42
45	0x00000567	1.938e-42
46	0x00000b10	3.968e-42
47	0x000004fb	1.787e-42
48	0x00000df7	5.01e-42
49	0x80000553	-1.91e-42
50	0x00000324	1.127e-42
51	0x80000e09	-5.035e-42
52	0x800013df	-7.128e-42
53	0x800010af	-5.985e-42
54	0x000010db	6.047e-42
55	0x00000ae1	3.903e-42
56	0x80000852	-2.985e-42
57	0x80001364	-6.956e-42
58	0x00000332	1.146e-42
59	0x80000635	-2.227e-42
60	0x00000736	2.587e-42
61	0x80001334	-6.889e-42
62	0x80000640	-2.242e-42
63	0x00000e6a	5.171e-42
64	0x00000320	1.121e-42
65	0x800002db	-1.024e-42
66	0x000008e1	3.185e-42
67	0x80000eaf	-5.267e-42
68	0x80000834	-2.943e-42
69	0x000005c3	2.067e-42
70	0x000006c7	2.431e-42
71	0x000014b8	7.432e-42
72	0x8000153a	-7.615e-42
73	0x00000193	5.65e-43
74	0x0000061c	2.192e-42
75	0x80000ea6	-5.255e-42
76	0x80000ce9	-4.631e-42
77	0x80000018	-3.4e-44
78	0x8000112c	-6.16e-42
79	0x00001282	6.64e-42
80	0x0000099c	3.447e-42
81	0xbe80b2fa	-0.25136548
82	0x3d16c5ce	0.036809735
83	0x3df79cf5	0.12090484
84	0xbe12d8ca	-0.14340511
85	0xbcc16a01	-0.023610117
86	0x3e0dc581	0.13844873
87	0xbd80d3cc	-0.06290397
88	0x3d9ae840	0.075638294
89	0x3e244d73	0.1604517
90	0xbbc250bb	-0.005930034
91	0x3e2a50c1	0.16632368
92	0x3e397073	0.18109302
93	0x3c624b40	0.013811886
94	0x3ce32afb	0.027730456
95	0x3e0e3448	0.13887131
96	0x3d84ea5a	0.064900115
97	0x3caff30d	0.0214782
98	0x3d8907f8	0.06690973
99	0x000006c4	2.427e-42
100	0x00001940	9.058e-42
101	0x800010e5	-6.06e-42
102	0x80000c5e	-4.437e-42
103	0x000007fb	2.863e-42
104	0x80001465	-7.316e-42
105	0x800013a9	-7.053e-42
106	0x00001619	7.927e-42
107	0x800000bc	-2.63e-43
108	0x3dd010b8	0.10159439
109	0xbd3f080c	-0.046638533
110	0xbe1d88c8	-0.15384209
111	0x3db220d2	0.08697666
112	0xba113121	-0.0005538632
113	0xbe4d8023	-0.20068412
114	0x3e593153	0.21210222
115	0x3e2570fa	0.16156378
116	0xbd47fd9e	-0.048825853
117	0x3d80140f	0.06253826
118	0xbbc2f436	-0.0059495224
119	0x3b9ad4d7	0.0047250795
120	0x3d909d22	0.07061221
121	0x3d23e2fa	0.040011384
122	0x3dc17b46	0.09447341
123	0xbd53e38f	-0.05173069
124	0x3e468599	0.19386901
125	0x3e1935f5	0.14961989
126	0x00001006	5.748e-42
127	0x000007b8	2.769e-42
128	0x000011f2	6.438e-42
129	0x000011f8	6.446e-42
130	0x80001377	-6.983e-42
131	0x8000142a	-7.234e-42
132	0x00000f2c	5.443e-42
133	0x800017a5	-8.482e-42
134	0x80000474	-1.597e-42
135	0x80000b87	-4.135e-42
136	0x800005db	-2.1e-42
137	0x000010bd	6.005e-42
138	0x80000415	-1.464e-42
139	0x80000a81	-3.768e-42
140	0x80000a36	-3.663e-42
141	0x8000065e	-2.284e-42
142	0x800003ec	-1.407e-42
143	0x00001571	7.692e-42
